…
--------------------


0
1
2
0
1
2
3
0
1
2
3
4
5
0
1
2
categorical: False
Model: "model"
__________________________________________________________________________________________________
 Layer (type)                Output Shape                 Param #   Connected to                  
==================================================================================================
 input_1 (InputLayer)        [(None, 1024, 680, 3)]       0         []                            
                                                                                                  
 conv2d (Conv2D)             (None, 1018, 674, 64)        9472      ['input_1[0][0]']             
                                                                                                  
 batch_normalization (Batch  (None, 1018, 674, 64)        256       ['conv2d[0][0]']              
 Normalization)                                                                                   
                                                                                                  
 activation (Activation)     (None, 1018, 674, 64)        0         ['batch_normalization[0][0]'] 
                                                                                                  
 dropout (Dropout)           (None, 1018, 674, 64)        0         ['activation[0][0]']          
                                                                                                  
 max_pooling2d (MaxPooling2  (None, 509, 337, 64)         0         ['dropout[0][0]']             
 D)                                                                                               
                                                                                                  
 conv2d_1 (Conv2D)           (None, 509, 337, 64)         36928     ['max_pooling2d[0][0]']       
                                                                                                  
 batch_normalization_1 (Bat  (None, 509, 337, 64)         256       ['conv2d_1[0][0]']            
 chNormalization)                                                                                 
                                                                                                  
 activation_1 (Activation)   (None, 509, 337, 64)         0         ['batch_normalization_1[0][0]'
                                                                    ]                             
                                                                                                  
 conv2d_2 (Conv2D)           (None, 509, 337, 64)         36928     ['activation_1[0][0]']        
                                                                                                  
 batch_normalization_2 (Bat  (None, 509, 337, 64)         256       ['conv2d_2[0][0]']            
 chNormalization)                                                                                 
                                                                                                  
 add (Add)                   (None, 509, 337, 64)         0         ['batch_normalization_2[0][0]'
                                                                    , 'max_pooling2d[0][0]']      
                                                                                                  
 activation_2 (Activation)   (None, 509, 337, 64)         0         ['add[0][0]']                 
                                                                                                  
 conv2d_3 (Conv2D)           (None, 509, 337, 64)         36928     ['activation_2[0][0]']        
                                                                                                  
 batch_normalization_3 (Bat  (None, 509, 337, 64)         256       ['conv2d_3[0][0]']            
 chNormalization)                                                                                 
                                                                                                  
 activation_3 (Activation)   (None, 509, 337, 64)         0         ['batch_normalization_3[0][0]'
                                                                    ]                             
                                                                                                  
 conv2d_4 (Conv2D)           (None, 509, 337, 64)         36928     ['activation_3[0][0]']        
                                                                                                  
 batch_normalization_4 (Bat  (None, 509, 337, 64)         256       ['conv2d_4[0][0]']            
 chNormalization)                                                                                 
                                                                                                  
 add_1 (Add)                 (None, 509, 337, 64)         0         ['batch_normalization_4[0][0]'
                                                                    , 'activation_2[0][0]']       
                                                                                                  
 activation_4 (Activation)   (None, 509, 337, 64)         0         ['add_1[0][0]']               
                                                                                                  
 conv2d_5 (Conv2D)           (None, 509, 337, 64)         36928     ['activation_4[0][0]']        
                                                                                                  
 batch_normalization_5 (Bat  (None, 509, 337, 64)         256       ['conv2d_5[0][0]']            
 chNormalization)                                                                                 
                                                                                                  
 activation_5 (Activation)   (None, 509, 337, 64)         0         ['batch_normalization_5[0][0]'
                                                                    ]                             
                                                                                                  
 conv2d_6 (Conv2D)           (None, 509, 337, 64)         36928     ['activation_5[0][0]']        
                                                                                                  
 batch_normalization_6 (Bat  (None, 509, 337, 64)         256       ['conv2d_6[0][0]']            
 chNormalization)                                                                                 
                                                                                                  
 add_2 (Add)                 (None, 509, 337, 64)         0         ['batch_normalization_6[0][0]'
                                                                    , 'activation_4[0][0]']       
                                                                                                  
 activation_6 (Activation)   (None, 509, 337, 64)         0         ['add_2[0][0]']               
                                                                                                  
 conv2d_8 (Conv2D)           (None, 255, 169, 128)        73856     ['activation_6[0][0]']        
                                                                                                  
 batch_normalization_7 (Bat  (None, 255, 169, 128)        512       ['conv2d_8[0][0]']            
 chNormalization)                                                                                 
                                                                                                  
 activation_7 (Activation)   (None, 255, 169, 128)        0         ['batch_normalization_7[0][0]'
                                                                    ]                             
                                                                                                  
 conv2d_9 (Conv2D)           (None, 255, 169, 128)        147584    ['activation_7[0][0]']        
                                                                                                  
 batch_normalization_8 (Bat  (None, 255, 169, 128)        512       ['conv2d_9[0][0]']            
 chNormalization)                                                                                 
                                                                                                  
 conv2d_7 (Conv2D)           (None, 255, 169, 128)        8320      ['activation_6[0][0]']        
                                                                                                  
 add_3 (Add)                 (None, 255, 169, 128)        0         ['batch_normalization_8[0][0]'
                                                                    , 'conv2d_7[0][0]']           
                                                                                                  
 activation_8 (Activation)   (None, 255, 169, 128)        0         ['add_3[0][0]']               
                                                                                                  
 conv2d_10 (Conv2D)          (None, 255, 169, 128)        147584    ['activation_8[0][0]']        
                                                                                                  
 batch_normalization_9 (Bat  (None, 255, 169, 128)        512       ['conv2d_10[0][0]']           
 chNormalization)                                                                                 
                                                                                                  
 activation_9 (Activation)   (None, 255, 169, 128)        0         ['batch_normalization_9[0][0]'
                                                                    ]                             
                                                                                                  
 conv2d_11 (Conv2D)          (None, 255, 169, 128)        147584    ['activation_9[0][0]']        
                                                                                                  
 batch_normalization_10 (Ba  (None, 255, 169, 128)        512       ['conv2d_11[0][0]']           
 tchNormalization)                                                                                
                                                                                                  
 add_4 (Add)                 (None, 255, 169, 128)        0         ['batch_normalization_10[0][0]
                                                                    ',                            
                                                                     'activation_8[0][0]']        
                                                                                                  
 activation_10 (Activation)  (None, 255, 169, 128)        0         ['add_4[0][0]']               
                                                                                                  
 conv2d_12 (Conv2D)          (None, 255, 169, 128)        147584    ['activation_10[0][0]']       
                                                                                                  
 batch_normalization_11 (Ba  (None, 255, 169, 128)        512       ['conv2d_12[0][0]']           
 tchNormalization)                                                                                
                                                                                                  
 activation_11 (Activation)  (None, 255, 169, 128)        0         ['batch_normalization_11[0][0]
                                                                    ']                            
                                                                                                  
 conv2d_13 (Conv2D)          (None, 255, 169, 128)        147584    ['activation_11[0][0]']       
                                                                                                  
 batch_normalization_12 (Ba  (None, 255, 169, 128)        512       ['conv2d_13[0][0]']           
 tchNormalization)                                                                                
                                                                                                  
 add_5 (Add)                 (None, 255, 169, 128)        0         ['batch_normalization_12[0][0]
                                                                    ',                            
                                                                     'activation_10[0][0]']       
                                                                                                  
 activation_12 (Activation)  (None, 255, 169, 128)        0         ['add_5[0][0]']               
                                                                                                  
 conv2d_14 (Conv2D)          (None, 255, 169, 128)        147584    ['activation_12[0][0]']       
                                                                                                  
 batch_normalization_13 (Ba  (None, 255, 169, 128)        512       ['conv2d_14[0][0]']           
 tchNormalization)                                                                                
                                                                                                  
 activation_13 (Activation)  (None, 255, 169, 128)        0         ['batch_normalization_13[0][0]
                                                                    ']                            
                                                                                                  
 conv2d_15 (Conv2D)          (None, 255, 169, 128)        147584    ['activation_13[0][0]']       
                                                                                                  
 batch_normalization_14 (Ba  (None, 255, 169, 128)        512       ['conv2d_15[0][0]']           
 tchNormalization)                                                                                
                                                                                                  
 add_6 (Add)                 (None, 255, 169, 128)        0         ['batch_normalization_14[0][0]
                                                                    ',                            
                                                                     'activation_12[0][0]']       
                                                                                                  
 activation_14 (Activation)  (None, 255, 169, 128)        0         ['add_6[0][0]']               
                                                                                                  
 conv2d_17 (Conv2D)          (None, 128, 85, 256)         295168    ['activation_14[0][0]']       
                                                                                                  
 batch_normalization_15 (Ba  (None, 128, 85, 256)         1024      ['conv2d_17[0][0]']           
 tchNormalization)                                                                                
                                                                                                  
 activation_15 (Activation)  (None, 128, 85, 256)         0         ['batch_normalization_15[0][0]
                                                                    ']                            
                                                                                                  
 conv2d_18 (Conv2D)          (None, 128, 85, 256)         590080    ['activation_15[0][0]']       
                                                                                                  
 batch_normalization_16 (Ba  (None, 128, 85, 256)         1024      ['conv2d_18[0][0]']           
 tchNormalization)                                                                                
                                                                                                  
 conv2d_16 (Conv2D)          (None, 128, 85, 256)         33024     ['activation_14[0][0]']       
                                                                                                  
 add_7 (Add)                 (None, 128, 85, 256)         0         ['batch_normalization_16[0][0]
                                                                    ',                            
                                                                     'conv2d_16[0][0]']           
                                                                                                  
 activation_16 (Activation)  (None, 128, 85, 256)         0         ['add_7[0][0]']               
                                                                                                  
 conv2d_19 (Conv2D)          (None, 128, 85, 256)         590080    ['activation_16[0][0]']       
                                                                                                  
 batch_normalization_17 (Ba  (None, 128, 85, 256)         1024      ['conv2d_19[0][0]']           
 tchNormalization)                                                                                
                                                                                                  
 activation_17 (Activation)  (None, 128, 85, 256)         0         ['batch_normalization_17[0][0]
                                                                    ']                            
                                                                                                  
 conv2d_20 (Conv2D)          (None, 128, 85, 256)         590080    ['activation_17[0][0]']       
                                                                                                  
 batch_normalization_18 (Ba  (None, 128, 85, 256)         1024      ['conv2d_20[0][0]']           
 tchNormalization)                                                                                
                                                                                                  
 add_8 (Add)                 (None, 128, 85, 256)         0         ['batch_normalization_18[0][0]
                                                                    ',                            
                                                                     'activation_16[0][0]']       
                                                                                                  
 activation_18 (Activation)  (None, 128, 85, 256)         0         ['add_8[0][0]']               
                                                                                                  
 conv2d_21 (Conv2D)          (None, 128, 85, 256)         590080    ['activation_18[0][0]']       
                                                                                                  
 batch_normalization_19 (Ba  (None, 128, 85, 256)         1024      ['conv2d_21[0][0]']           
 tchNormalization)                                                                                
                                                                                                  
 activation_19 (Activation)  (None, 128, 85, 256)         0         ['batch_normalization_19[0][0]
                                                                    ']                            
                                                                                                  
 conv2d_22 (Conv2D)          (None, 128, 85, 256)         590080    ['activation_19[0][0]']       
                                                                                                  
 batch_normalization_20 (Ba  (None, 128, 85, 256)         1024      ['conv2d_22[0][0]']           
 tchNormalization)                                                                                
                                                                                                  
 add_9 (Add)                 (None, 128, 85, 256)         0         ['batch_normalization_20[0][0]
                                                                    ',                            
                                                                     'activation_18[0][0]']       
                                                                                                  
 activation_20 (Activation)  (None, 128, 85, 256)         0         ['add_9[0][0]']               
                                                                                                  
 conv2d_23 (Conv2D)          (None, 128, 85, 256)         590080    ['activation_20[0][0]']       
                                                                                                  
 batch_normalization_21 (Ba  (None, 128, 85, 256)         1024      ['conv2d_23[0][0]']           
 tchNormalization)                                                                                
                                                                                                  
 activation_21 (Activation)  (None, 128, 85, 256)         0         ['batch_normalization_21[0][0]
                                                                    ']                            
                                                                                                  
 conv2d_24 (Conv2D)          (None, 128, 85, 256)         590080    ['activation_21[0][0]']       
                                                                                                  
 batch_normalization_22 (Ba  (None, 128, 85, 256)         1024      ['conv2d_24[0][0]']           
 tchNormalization)                                                                                
                                                                                                  
 add_10 (Add)                (None, 128, 85, 256)         0         ['batch_normalization_22[0][0]
                                                                    ',                            
                                                                     'activation_20[0][0]']       
                                                                                                  
 activation_22 (Activation)  (None, 128, 85, 256)         0         ['add_10[0][0]']              
                                                                                                  
 conv2d_25 (Conv2D)          (None, 128, 85, 256)         590080    ['activation_22[0][0]']       
                                                                                                  
 batch_normalization_23 (Ba  (None, 128, 85, 256)         1024      ['conv2d_25[0][0]']           
 tchNormalization)                                                                                
                                                                                                  
 activation_23 (Activation)  (None, 128, 85, 256)         0         ['batch_normalization_23[0][0]
                                                                    ']                            
                                                                                                  
 conv2d_26 (Conv2D)          (None, 128, 85, 256)         590080    ['activation_23[0][0]']       
                                                                                                  
 batch_normalization_24 (Ba  (None, 128, 85, 256)         1024      ['conv2d_26[0][0]']           
 tchNormalization)                                                                                
                                                                                                  
 add_11 (Add)                (None, 128, 85, 256)         0         ['batch_normalization_24[0][0]
                                                                    ',                            
                                                                     'activation_22[0][0]']       
                                                                                                  
 activation_24 (Activation)  (None, 128, 85, 256)         0         ['add_11[0][0]']              
                                                                                                  
 conv2d_27 (Conv2D)          (None, 128, 85, 256)         590080    ['activation_24[0][0]']       
                                                                                                  
 batch_normalization_25 (Ba  (None, 128, 85, 256)         1024      ['conv2d_27[0][0]']           
 tchNormalization)                                                                                
                                                                                                  
 activation_25 (Activation)  (None, 128, 85, 256)         0         ['batch_normalization_25[0][0]
                                                                    ']                            
                                                                                                  
 conv2d_28 (Conv2D)          (None, 128, 85, 256)         590080    ['activation_25[0][0]']       
                                                                                                  
 batch_normalization_26 (Ba  (None, 128, 85, 256)         1024      ['conv2d_28[0][0]']           
 tchNormalization)                                                                                
                                                                                                  
 add_12 (Add)                (None, 128, 85, 256)         0         ['batch_normalization_26[0][0]
                                                                    ',                            
                                                                     'activation_24[0][0]']       
                                                                                                  
 activation_26 (Activation)  (None, 128, 85, 256)         0         ['add_12[0][0]']              
                                                                                                  
 conv2d_30 (Conv2D)          (None, 64, 43, 512)          1180160   ['activation_26[0][0]']       
                                                                                                  
 batch_normalization_27 (Ba  (None, 64, 43, 512)          2048      ['conv2d_30[0][0]']           
 tchNormalization)                                                                                
                                                                                                  
 activation_27 (Activation)  (None, 64, 43, 512)          0         ['batch_normalization_27[0][0]
                                                                    ']                            
                                                                                                  
 conv2d_31 (Conv2D)          (None, 64, 43, 512)          2359808   ['activation_27[0][0]']       
                                                                                                  
 batch_normalization_28 (Ba  (None, 64, 43, 512)          2048      ['conv2d_31[0][0]']           
 tchNormalization)                                                                                
                                                                                                  
 conv2d_29 (Conv2D)          (None, 64, 43, 512)          131584    ['activation_26[0][0]']       
                                                                                                  
 add_13 (Add)                (None, 64, 43, 512)          0         ['batch_normalization_28[0][0]
                                                                    ',                            
                                                                     'conv2d_29[0][0]']           
                                                                                                  
 activation_28 (Activation)  (None, 64, 43, 512)          0         ['add_13[0][0]']              
                                                                                                  
 conv2d_32 (Conv2D)          (None, 64, 43, 512)          2359808   ['activation_28[0][0]']       
                                                                                                  
 batch_normalization_29 (Ba  (None, 64, 43, 512)          2048      ['conv2d_32[0][0]']           
 tchNormalization)                                                                                
                                                                                                  
 conv2d_36 (Conv2D)          (None, 255, 169, 128)        73856     ['activation_6[0][0]']        
                                                                                                  
 activation_29 (Activation)  (None, 64, 43, 512)          0         ['batch_normalization_29[0][0]
                                                                    ']                            
                                                                                                  
 batch_normalization_33 (Ba  (None, 255, 169, 128)        512       ['conv2d_36[0][0]']           
 tchNormalization)                                                                                
                                                                                                  
 conv2d_33 (Conv2D)          (None, 64, 43, 512)          2359808   ['activation_29[0][0]']       
                                                                                                  
 activation_33 (Activation)  (None, 255, 169, 128)        0         ['batch_normalization_33[0][0]
                                                                    ']                            
                                                                                                  
 batch_normalization_30 (Ba  (None, 64, 43, 512)          2048      ['conv2d_33[0][0]']           
 tchNormalization)                                                                                
                                                                                                  
 dropout_1 (Dropout)         (None, 255, 169, 128)        0         ['activation_33[0][0]']       
                                                                                                  
 add_14 (Add)                (None, 64, 43, 512)          0         ['batch_normalization_30[0][0]
                                                                    ',                            
                                                                     'activation_28[0][0]']       
                                                                                                  
 conv2d_37 (Conv2D)          (None, 128, 85, 256)         131328    ['dropout_1[0][0]']           
                                                                                                  
 conv2d_40 (Conv2D)          (None, 128, 85, 256)         295168    ['activation_14[0][0]']       
                                                                                                  
 activation_30 (Activation)  (None, 64, 43, 512)          0         ['add_14[0][0]']              
                                                                                                  
 batch_normalization_34 (Ba  (None, 128, 85, 256)         1024      ['conv2d_37[0][0]']           
 tchNormalization)                                                                                
                                                                                                  
 batch_normalization_36 (Ba  (None, 128, 85, 256)         1024      ['conv2d_40[0][0]']           
 tchNormalization)                                                                                
                                                                                                  
 conv2d_34 (Conv2D)          (None, 64, 43, 512)          2359808   ['activation_30[0][0]']       
                                                                                                  
 activation_34 (Activation)  (None, 128, 85, 256)         0         ['batch_normalization_34[0][0]
                                                                    ']                            
                                                                                                  
 activation_36 (Activation)  (None, 128, 85, 256)         0         ['batch_normalization_36[0][0]
                                                                    ']                            
                                                                                                  
 batch_normalization_31 (Ba  (None, 64, 43, 512)          2048      ['conv2d_34[0][0]']           
 tchNormalization)                                                                                
                                                                                                  
 dropout_2 (Dropout)         (None, 128, 85, 256)         0         ['activation_34[0][0]']       
                                                                                                  
 dropout_4 (Dropout)         (None, 128, 85, 256)         0         ['activation_36[0][0]']       
                                                                                                  
 activation_31 (Activation)  (None, 64, 43, 512)          0         ['batch_normalization_31[0][0]
                                                                    ']                            
                                                                                                  
 conv2d_38 (Conv2D)          (None, 64, 43, 512)          524800    ['dropout_2[0][0]']           
                                                                                                  
 conv2d_41 (Conv2D)          (None, 64, 43, 512)          524800    ['dropout_4[0][0]']           
                                                                                                  
 conv2d_35 (Conv2D)          (None, 64, 43, 512)          2359808   ['activation_31[0][0]']       
                                                                                                  
 batch_normalization_35 (Ba  (None, 64, 43, 512)          2048      ['conv2d_38[0][0]']           
 tchNormalization)                                                                                
                                                                                                  
 batch_normalization_37 (Ba  (None, 64, 43, 512)          2048      ['conv2d_41[0][0]']           
 tchNormalization)                                                                                
                                                                                                  
 batch_normalization_32 (Ba  (None, 64, 43, 512)          2048      ['conv2d_35[0][0]']           
 tchNormalization)                                                                                
                                                                                                  
 activation_35 (Activation)  (None, 64, 43, 512)          0         ['batch_normalization_35[0][0]
                                                                    ']                            
                                                                                                  
 activation_37 (Activation)  (None, 64, 43, 512)          0         ['batch_normalization_37[0][0]
                                                                    ']                            
                                                                                                  
 add_15 (Add)                (None, 64, 43, 512)          0         ['batch_normalization_32[0][0]
                                                                    ',                            
                                                                     'activation_30[0][0]']       
                                                                                                  
 dropout_3 (Dropout)         (None, 64, 43, 512)          0         ['activation_35[0][0]']       
                                                                                                  
 dropout_5 (Dropout)         (None, 64, 43, 512)          0         ['activation_37[0][0]']       
                                                                                                  
 conv2d_43 (Conv2D)          (None, 64, 43, 512)          524800    ['activation_26[0][0]']       
                                                                                                  
 activation_32 (Activation)  (None, 64, 43, 512)          0         ['add_15[0][0]']              
                                                                                                  
 conv2d_39 (Conv2D)          (None, 32, 22, 512)          1049088   ['dropout_3[0][0]']           
                                                                                                  
 conv2d_42 (Conv2D)          (None, 32, 22, 512)          1049088   ['dropout_5[0][0]']           
                                                                                                  
 conv2d_44 (Conv2D)          (None, 32, 22, 512)          1049088   ['conv2d_43[0][0]']           
                                                                                                  
 conv2d_45 (Conv2D)          (None, 32, 22, 512)          1049088   ['activation_32[0][0]']       
                                                                                                  
 add_16 (Add)                (None, 32, 22, 512)          0         ['conv2d_39[0][0]',           
                                                                     'conv2d_42[0][0]',           
                                                                     'conv2d_44[0][0]',           
                                                                     'conv2d_45[0][0]']           
                                                                                                  
 conv2d_46 (Conv2D)          (None, 10, 10, 512)          2359808   ['add_16[0][0]']              
                                                                                                  
 batch_normalization_38 (Ba  (None, 10, 10, 512)          2048      ['conv2d_46[0][0]']           
 tchNormalization)                                                                                
                                                                                                  
 activation_38 (Activation)  (None, 10, 10, 512)          0         ['batch_normalization_38[0][0]
                                                                    ']                            
                                                                                                  
 dropout_6 (Dropout)         (None, 10, 10, 512)          0         ['activation_38[0][0]']       
                                                                                                  
 conv2d_47 (Conv2D)          (None, 4, 4, 512)            2359808   ['dropout_6[0][0]']           
                                                                                                  
 batch_normalization_39 (Ba  (None, 4, 4, 512)            2048      ['conv2d_47[0][0]']           
 tchNormalization)                                                                                
                                                                                                  
 activation_39 (Activation)  (None, 4, 4, 512)            0         ['batch_normalization_39[0][0]
                                                                    ']                            
                                                                                                  
 dropout_7 (Dropout)         (None, 4, 4, 512)            0         ['activation_39[0][0]']       
                                                                                                  
 flatten (Flatten)           (None, 8192)                 0         ['dropout_7[0][0]']           
                                                                                                  
 dense (Dense)               (None, 2048)                 1677926   ['flatten[0][0]']             
                                                          4                                       
                                                                                                  
 dense_1 (Dense)             (None, 1024)                 2098176   ['dense[0][0]']               
                                                                                                  
 dense_2 (Dense)             (None, 512)                  524800    ['dense_1[0][0]']             
                                                                                                  
 dense_3 (Dense)             (None, 256)                  131328    ['dense_2[0][0]']             
                                                                                                  
 dense_4 (Dense)             (None, 128)                  32896     ['dense_3[0][0]']             
                                                                                                  
 dense_5 (Dense)             (None, 128)                  16512     ['dense_4[0][0]']             
                                                                                                  
 dense_6 (Dense)             (None, 1)                    129       ['dense_5[0][0]']             
                                                                                                  
==================================================================================================
Total params: 51891201 (99.05 MB)
Trainable params: 51870593 (98.97 MB)
Non-trainable params: 20608 (80.50 KB)
__________________________________________________________________________________________________
…
