…
batch_normalization (BatchNorma (None, 1018, 674, 64 256         conv2d[0][0]                     
__________________________________________________________________________________________________
activation (Activation)         (None, 1018, 674, 64 0           batch_normalization[0][0]        
__________________________________________________________________________________________________
dropout (Dropout)               (None, 1018, 674, 64 0           activation[0][0]                 
__________________________________________________________________________________________________
max_pooling2d (MaxPooling2D)    (None, 509, 337, 64) 0           dropout[0][0]                    
__________________________________________________________________________________________________
conv2d_1 (Conv2D)               (None, 509, 337, 64) 36928       max_pooling2d[0][0]              
__________________________________________________________________________________________________
batch_normalization_1 (BatchNor (None, 509, 337, 64) 256         conv2d_1[0][0]                   
__________________________________________________________________________________________________
activation_1 (Activation)       (None, 509, 337, 64) 0           batch_normalization_1[0][0]      
__________________________________________________________________________________________________
conv2d_2 (Conv2D)               (None, 509, 337, 64) 36928       activation_1[0][0]               
__________________________________________________________________________________________________
batch_normalization_2 (BatchNor (None, 509, 337, 64) 256         conv2d_2[0][0]                   
__________________________________________________________________________________________________
add (Add)                       (None, 509, 337, 64) 0           batch_normalization_2[0][0]      
                                                                 max_pooling2d[0][0]              
__________________________________________________________________________________________________
activation_2 (Activation)       (None, 509, 337, 64) 0           add[0][0]                        
__________________________________________________________________________________________________
conv2d_3 (Conv2D)               (None, 509, 337, 64) 36928       activation_2[0][0]               
__________________________________________________________________________________________________
batch_normalization_3 (BatchNor (None, 509, 337, 64) 256         conv2d_3[0][0]                   
__________________________________________________________________________________________________
activation_3 (Activation)       (None, 509, 337, 64) 0           batch_normalization_3[0][0]      
__________________________________________________________________________________________________
conv2d_4 (Conv2D)               (None, 509, 337, 64) 36928       activation_3[0][0]               
__________________________________________________________________________________________________
batch_normalization_4 (BatchNor (None, 509, 337, 64) 256         conv2d_4[0][0]                   
__________________________________________________________________________________________________
add_1 (Add)                     (None, 509, 337, 64) 0           batch_normalization_4[0][0]      
                                                                 activation_2[0][0]               
__________________________________________________________________________________________________
activation_4 (Activation)       (None, 509, 337, 64) 0           add_1[0][0]                      
__________________________________________________________________________________________________
conv2d_5 (Conv2D)               (None, 509, 337, 64) 36928       activation_4[0][0]               
__________________________________________________________________________________________________
batch_normalization_5 (BatchNor (None, 509, 337, 64) 256         conv2d_5[0][0]                   
__________________________________________________________________________________________________
activation_5 (Activation)       (None, 509, 337, 64) 0           batch_normalization_5[0][0]      
__________________________________________________________________________________________________
conv2d_6 (Conv2D)               (None, 509, 337, 64) 36928       activation_5[0][0]               
__________________________________________________________________________________________________
batch_normalization_6 (BatchNor (None, 509, 337, 64) 256         conv2d_6[0][0]                   
__________________________________________________________________________________________________
add_2 (Add)                     (None, 509, 337, 64) 0           batch_normalization_6[0][0]      
                                                                 activation_4[0][0]               
__________________________________________________________________________________________________
activation_6 (Activation)       (None, 509, 337, 64) 0           add_2[0][0]                      
__________________________________________________________________________________________________
conv2d_8 (Conv2D)               (None, 255, 169, 128 73856       activation_6[0][0]               
__________________________________________________________________________________________________
batch_normalization_7 (BatchNor (None, 255, 169, 128 512         conv2d_8[0][0]                   
…
__________________________________________________________________________________________________
add_6 (Add)                     (None, 255, 169, 128 0           batch_normalization_14[0][0]     
                                                                 activation_12[0][0]              
__________________________________________________________________________________________________
activation_14 (Activation)      (None, 255, 169, 128 0           add_6[0][0]                      
__________________________________________________________________________________________________
conv2d_17 (Conv2D)              (None, 128, 85, 256) 295168      activation_14[0][0]              
__________________________________________________________________________________________________
batch_normalization_15 (BatchNo (None, 128, 85, 256) 1024        conv2d_17[0][0]                  
__________________________________________________________________________________________________
activation_15 (Activation)      (None, 128, 85, 256) 0           batch_normalization_15[0][0]     
__________________________________________________________________________________________________
conv2d_18 (Conv2D)              (None, 128, 85, 256) 590080      activation_15[0][0]              
__________________________________________________________________________________________________
batch_normalization_16 (BatchNo (None, 128, 85, 256) 1024        conv2d_18[0][0]                  
__________________________________________________________________________________________________
conv2d_16 (Conv2D)              (None, 128, 85, 256) 33024       activation_14[0][0]              
__________________________________________________________________________________________________
add_7 (Add)                     (None, 128, 85, 256) 0           batch_normalization_16[0][0]     
                                                                 conv2d_16[0][0]                  
__________________________________________________________________________________________________
activation_16 (Activation)      (None, 128, 85, 256) 0           add_7[0][0]                      
__________________________________________________________________________________________________
conv2d_19 (Conv2D)              (None, 128, 85, 256) 590080      activation_16[0][0]              
__________________________________________________________________________________________________
batch_normalization_17 (BatchNo (None, 128, 85, 256) 1024        conv2d_19[0][0]                  
__________________________________________________________________________________________________
activation_17 (Activation)      (None, 128, 85, 256) 0           batch_normalization_17[0][0]     
__________________________________________________________________________________________________
conv2d_20 (Conv2D)              (None, 128, 85, 256) 590080      activation_17[0][0]              
__________________________________________________________________________________________________
batch_normalization_18 (BatchNo (None, 128, 85, 256) 1024        conv2d_20[0][0]                  
__________________________________________________________________________________________________
add_8 (Add)                     (None, 128, 85, 256) 0           batch_normalization_18[0][0]     
                                                                 activation_16[0][0]              
__________________________________________________________________________________________________
activation_18 (Activation)      (None, 128, 85, 256) 0           add_8[0][0]                      
__________________________________________________________________________________________________
conv2d_21 (Conv2D)              (None, 128, 85, 256) 590080      activation_18[0][0]              
__________________________________________________________________________________________________
batch_normalization_19 (BatchNo (None, 128, 85, 256) 1024        conv2d_21[0][0]                  
__________________________________________________________________________________________________
activation_19 (Activation)      (None, 128, 85, 256) 0           batch_normalization_19[0][0]     
__________________________________________________________________________________________________
conv2d_22 (Conv2D)              (None, 128, 85, 256) 590080      activation_19[0][0]              
__________________________________________________________________________________________________
batch_normalization_20 (BatchNo (None, 128, 85, 256) 1024        conv2d_22[0][0]                  
__________________________________________________________________________________________________
add_9 (Add)                     (None, 128, 85, 256) 0           batch_normalization_20[0][0]     
                                                                 activation_18[0][0]              
__________________________________________________________________________________________________
activation_20 (Activation)      (None, 128, 85, 256) 0           add_9[0][0]                      
__________________________________________________________________________________________________
conv2d_23 (Conv2D)              (None, 128, 85, 256) 590080      activation_20[0][0]              
__________________________________________________________________________________________________
batch_normalization_21 (BatchNo (None, 128, 85, 256) 1024        conv2d_23[0][0]                  
__________________________________________________________________________________________________
activation_21 (Activation)      (None, 128, 85, 256) 0           batch_normalization_21[0][0]     
__________________________________________________________________________________________________
conv2d_24 (Conv2D)              (None, 128, 85, 256) 590080      activation_21[0][0]              
__________________________________________________________________________________________________
batch_normalization_22 (BatchNo (None, 128, 85, 256) 1024        conv2d_24[0][0]                  
__________________________________________________________________________________________________
add_10 (Add)                    (None, 128, 85, 256) 0           batch_normalization_22[0][0]     
                                                                 activation_20[0][0]              
__________________________________________________________________________________________________
activation_22 (Activation)      (None, 128, 85, 256) 0           add_10[0][0]                     
__________________________________________________________________________________________________
conv2d_25 (Conv2D)              (None, 128, 85, 256) 590080      activation_22[0][0]              
__________________________________________________________________________________________________
batch_normalization_23 (BatchNo (None, 128, 85, 256) 1024        conv2d_25[0][0]                  
__________________________________________________________________________________________________
activation_23 (Activation)      (None, 128, 85, 256) 0           batch_normalization_23[0][0]     
__________________________________________________________________________________________________
conv2d_26 (Conv2D)              (None, 128, 85, 256) 590080      activation_23[0][0]              
__________________________________________________________________________________________________
batch_normalization_24 (BatchNo (None, 128, 85, 256) 1024        conv2d_26[0][0]                  
__________________________________________________________________________________________________
add_11 (Add)                    (None, 128, 85, 256) 0           batch_normalization_24[0][0]     
                                                                 activation_22[0][0]              
__________________________________________________________________________________________________
activation_24 (Activation)      (None, 128, 85, 256) 0           add_11[0][0]                     
__________________________________________________________________________________________________
conv2d_27 (Conv2D)              (None, 128, 85, 256) 590080      activation_24[0][0]              
__________________________________________________________________________________________________
batch_normalization_25 (BatchNo (None, 128, 85, 256) 1024        conv2d_27[0][0]                  
__________________________________________________________________________________________________
activation_25 (Activation)      (None, 128, 85, 256) 0           batch_normalization_25[0][0]     
__________________________________________________________________________________________________
conv2d_28 (Conv2D)              (None, 128, 85, 256) 590080      activation_25[0][0]              
__________________________________________________________________________________________________
batch_normalization_26 (BatchNo (None, 128, 85, 256) 1024        conv2d_28[0][0]                  
__________________________________________________________________________________________________
add_12 (Add)                    (None, 128, 85, 256) 0           batch_normalization_26[0][0]     
                                                                 activation_24[0][0]              
__________________________________________________________________________________________________
activation_26 (Activation)      (None, 128, 85, 256) 0           add_12[0][0]                     
__________________________________________________________________________________________________
conv2d_30 (Conv2D)              (None, 64, 43, 512)  1180160     activation_26[0][0]              
__________________________________________________________________________________________________
batch_normalization_27 (BatchNo (None, 64, 43, 512)  2048        conv2d_30[0][0]                  
__________________________________________________________________________________________________
activation_27 (Activation)      (None, 64, 43, 512)  0           batch_normalization_27[0][0]     
__________________________________________________________________________________________________
conv2d_31 (Conv2D)              (None, 64, 43, 512)  2359808     activation_27[0][0]              
__________________________________________________________________________________________________
batch_normalization_28 (BatchNo (None, 64, 43, 512)  2048        conv2d_31[0][0]                  
__________________________________________________________________________________________________
conv2d_29 (Conv2D)              (None, 64, 43, 512)  131584      activation_26[0][0]              
__________________________________________________________________________________________________
add_13 (Add)                    (None, 64, 43, 512)  0           batch_normalization_28[0][0]     
                                                                 conv2d_29[0][0]                  
__________________________________________________________________________________________________
activation_28 (Activation)      (None, 64, 43, 512)  0           add_13[0][0]                     
__________________________________________________________________________________________________
conv2d_32 (Conv2D)              (None, 64, 43, 512)  2359808     activation_28[0][0]              
__________________________________________________________________________________________________
batch_normalization_29 (BatchNo (None, 64, 43, 512)  2048        conv2d_32[0][0]                  
__________________________________________________________________________________________________
conv2d_36 (Conv2D)              (None, 255, 169, 128 73856       activation_6[0][0]               
__________________________________________________________________________________________________
activation_29 (Activation)      (None, 64, 43, 512)  0           batch_normalization_29[0][0]     
__________________________________________________________________________________________________
batch_normalization_33 (BatchNo (None, 255, 169, 128 512         conv2d_36[0][0]                  
__________________________________________________________________________________________________
conv2d_33 (Conv2D)              (None, 64, 43, 512)  2359808     activation_29[0][0]              
__________________________________________________________________________________________________
activation_33 (Activation)      (None, 255, 169, 128 0           batch_normalization_33[0][0]     
__________________________________________________________________________________________________
batch_normalization_30 (BatchNo (None, 64, 43, 512)  2048        conv2d_33[0][0]                  
__________________________________________________________________________________________________
dropout_1 (Dropout)             (None, 255, 169, 128 0           activation_33[0][0]              
__________________________________________________________________________________________________
add_14 (Add)                    (None, 64, 43, 512)  0           batch_normalization_30[0][0]     
                                                                 activation_28[0][0]              
__________________________________________________________________________________________________
conv2d_37 (Conv2D)              (None, 128, 85, 256) 131328      dropout_1[0][0]                  
__________________________________________________________________________________________________
conv2d_40 (Conv2D)              (None, 128, 85, 256) 295168      activation_14[0][0]              
__________________________________________________________________________________________________
activation_30 (Activation)      (None, 64, 43, 512)  0           add_14[0][0]                     
__________________________________________________________________________________________________
batch_normalization_34 (BatchNo (None, 128, 85, 256) 1024        conv2d_37[0][0]                  
__________________________________________________________________________________________________
batch_normalization_36 (BatchNo (None, 128, 85, 256) 1024        conv2d_40[0][0]                  
__________________________________________________________________________________________________
conv2d_34 (Conv2D)              (None, 64, 43, 512)  2359808     activation_30[0][0]              
__________________________________________________________________________________________________
activation_34 (Activation)      (None, 128, 85, 256) 0           batch_normalization_34[0][0]     
__________________________________________________________________________________________________
activation_36 (Activation)      (None, 128, 85, 256) 0           batch_normalization_36[0][0]     
__________________________________________________________________________________________________
batch_normalization_31 (BatchNo (None, 64, 43, 512)  2048        conv2d_34[0][0]                  
__________________________________________________________________________________________________
dropout_2 (Dropout)             (None, 128, 85, 256) 0           activation_34[0][0]              
__________________________________________________________________________________________________
dropout_4 (Dropout)             (None, 128, 85, 256) 0           activation_36[0][0]              
__________________________________________________________________________________________________
activation_31 (Activation)      (None, 64, 43, 512)  0           batch_normalization_31[0][0]     
__________________________________________________________________________________________________
conv2d_38 (Conv2D)              (None, 64, 43, 512)  524800      dropout_2[0][0]                  
__________________________________________________________________________________________________
conv2d_41 (Conv2D)              (None, 64, 43, 512)  524800      dropout_4[0][0]                  
__________________________________________________________________________________________________
conv2d_35 (Conv2D)              (None, 64, 43, 512)  2359808     activation_31[0][0]              
__________________________________________________________________________________________________
batch_normalization_35 (BatchNo (None, 64, 43, 512)  2048        conv2d_38[0][0]                  
__________________________________________________________________________________________________
batch_normalization_37 (BatchNo (None, 64, 43, 512)  2048        conv2d_41[0][0]                  
__________________________________________________________________________________________________
batch_normalization_32 (BatchNo (None, 64, 43, 512)  2048        conv2d_35[0][0]                  
__________________________________________________________________________________________________
activation_35 (Activation)      (None, 64, 43, 512)  0           batch_normalization_35[0][0]     
__________________________________________________________________________________________________
activation_37 (Activation)      (None, 64, 43, 512)  0           batch_normalization_37[0][0]     
__________________________________________________________________________________________________
add_15 (Add)                    (None, 64, 43, 512)  0           batch_normalization_32[0][0]     
                                                                 activation_30[0][0]              
__________________________________________________________________________________________________
dropout_3 (Dropout)             (None, 64, 43, 512)  0           activation_35[0][0]              
__________________________________________________________________________________________________
dropout_5 (Dropout)             (None, 64, 43, 512)  0           activation_37[0][0]              
__________________________________________________________________________________________________
conv2d_43 (Conv2D)              (None, 64, 43, 512)  524800      activation_26[0][0]              
__________________________________________________________________________________________________
activation_32 (Activation)      (None, 64, 43, 512)  0           add_15[0][0]                     
__________________________________________________________________________________________________
conv2d_39 (Conv2D)              (None, 32, 22, 512)  1049088     dropout_3[0][0]                  
__________________________________________________________________________________________________
conv2d_42 (Conv2D)              (None, 32, 22, 512)  1049088     dropout_5[0][0]                  
__________________________________________________________________________________________________
conv2d_44 (Conv2D)              (None, 32, 22, 512)  1049088     conv2d_43[0][0]                  
__________________________________________________________________________________________________
conv2d_45 (Conv2D)              (None, 32, 22, 512)  1049088     activation_32[0][0]              
__________________________________________________________________________________________________
add_16 (Add)                    (None, 32, 22, 512)  0           conv2d_39[0][0]                  
                                                                 conv2d_42[0][0]                  
                                                                 conv2d_44[0][0]                  
                                                                 conv2d_45[0][0]                  
__________________________________________________________________________________________________
activation_38 (Activation)      (None, 32, 22, 512)  0           add_16[0][0]                     
__________________________________________________________________________________________________
conv2d_46 (Conv2D)              (None, 10, 10, 512)  2359808     activation_38[0][0]              
__________________________________________________________________________________________________
batch_normalization_38 (BatchNo (None, 10, 10, 512)  2048        conv2d_46[0][0]                  
__________________________________________________________________________________________________
activation_39 (Activation)      (None, 10, 10, 512)  0           batch_normalization_38[0][0]     
__________________________________________________________________________________________________
dropout_6 (Dropout)             (None, 10, 10, 512)  0           activation_39[0][0]              
__________________________________________________________________________________________________
conv2d_47 (Conv2D)              (None, 4, 4, 512)    2359808     dropout_6[0][0]                  
__________________________________________________________________________________________________
batch_normalization_39 (BatchNo (None, 4, 4, 512)    2048        conv2d_47[0][0]                  
__________________________________________________________________________________________________
activation_40 (Activation)      (None, 4, 4, 512)    0           batch_normalization_39[0][0]     
__________________________________________________________________________________________________
dropout_7 (Dropout)             (None, 4, 4, 512)    0           activation_40[0][0]              
__________________________________________________________________________________________________
flatten (Flatten)               (None, 8192)         0           dropout_7[0][0]                  
__________________________________________________________________________________________________
dense (Dense)                   (None, 5)            40965       flatten[0][0]                    
==================================================================================================
Total params: 32,349,061
Trainable params: 32,328,453
Non-trainable params: 20,608
__________________________________________________________________________________________________
None
Adding Images: Error ---- 
No such file: '/mnt/beegfs/home/agolchub/repo/Aesthetic_Photo_Ranking/databaserelease2/JPEG/﻿Filename'
…
