…
/mnt/beegfs/home/agolchub/miniconda3/envs/tf2-gpu/lib/python3.9/site-packages/keras/optimizer_v2/optimizer_v2.py:355: UserWarning: The `lr` argument is deprecated, use `learning_rate` instead.
  warnings.warn(
Input file is " 
Output file is " agnet.simplemodel.1
Image path is " 
--------------------


Model: "model"
_________________________________________________________________
Layer (type)                 Output Shape              Param #   
=================================================================
input_1 (InputLayer)         [(None, 1024, 680, 3)]    0         
_________________________________________________________________
conv2d (Conv2D)              (None, 298, 297, 32)      1115168   
_________________________________________________________________
batch_normalization (BatchNo (None, 298, 297, 32)      128       
_________________________________________________________________
dropout (Dropout)            (None, 298, 297, 32)      0         
_________________________________________________________________
conv2d_1 (Conv2D)            (None, 117, 116, 64)      8921152   
_________________________________________________________________
batch_normalization_1 (Batch (None, 117, 116, 64)      256       
_________________________________________________________________
dropout_1 (Dropout)          (None, 117, 116, 64)      0         
_________________________________________________________________
conv2d_2 (Conv2D)            (None, 51, 51, 128)       2097280   
_________________________________________________________________
batch_normalization_2 (Batch (None, 51, 51, 128)       512       
_________________________________________________________________
dropout_2 (Dropout)          (None, 51, 51, 128)       0         
_________________________________________________________________
conv2d_3 (Conv2D)            (None, 23, 23, 256)       1605888   
_________________________________________________________________
batch_normalization_3 (Batch (None, 23, 23, 256)       1024      
_________________________________________________________________
dropout_3 (Dropout)          (None, 23, 23, 256)       0         
_________________________________________________________________
conv2d_4 (Conv2D)            (None, 11, 11, 256)       262400    
_________________________________________________________________
batch_normalization_4 (Batch (None, 11, 11, 256)       1024      
_________________________________________________________________
dropout_4 (Dropout)          (None, 11, 11, 256)       0         
_________________________________________________________________
conv2d_5 (Conv2D)            (None, 10, 10, 256)       262400    
_________________________________________________________________
batch_normalization_5 (Batch (None, 10, 10, 256)       1024      
_________________________________________________________________
dropout_5 (Dropout)          (None, 10, 10, 256)       0         
_________________________________________________________________
flatten (Flatten)            (None, 25600)             0         
_________________________________________________________________
dense (Dense)                (None, 256)               6553856   
_________________________________________________________________
dropout_6 (Dropout)          (None, 256)               0         
_________________________________________________________________
dense_1 (Dense)              (None, 128)               32896     
_________________________________________________________________
dropout_7 (Dropout)          (None, 128)               0         
_________________________________________________________________
dense_2 (Dense)              (None, 10)                1290      
_________________________________________________________________
dense_3 (Dense)              (None, 1)                 11        
=================================================================
Total params: 20,856,309
Trainable params: 20,854,325
Non-trainable params: 1,984
_________________________________________________________________
None
Adding Images: Reading ./databaserelease2/NatureDataset2/train/1-forest118.jpg
1
Reading ./databaserelease2/NatureDataset2/train/1-forest121.jpg
1
Reading ./databaserelease2/NatureDataset2/train/1-forest13.jpg
…
