…
/mnt/beegfs/home/agolchub/miniconda3/envs/tf2-gpu/lib/python3.9/site-packages/keras/optimizer_v2/optimizer_v2.py:355: UserWarning: The `lr` argument is deprecated, use `learning_rate` instead.
  warnings.warn(
Input file is " 
Output file is " segment_complete.nolock.train.3
Image path is " 
--------------------


Model: "model"
__________________________________________________________________________________________________
Layer (type)                    Output Shape         Param #     Connected to                     
==================================================================================================
input_1 (InputLayer)            [(None, 244, 244, 3) 0                                            
__________________________________________________________________________________________________
conv2d (Conv2D)                 (None, 45, 45, 80)   96080       input_1[0][0]                    
__________________________________________________________________________________________________
conv2d_4 (Conv2D)               (None, 45, 45, 80)   96080       input_1[0][0]                    
__________________________________________________________________________________________________
conv2d_8 (Conv2D)               (None, 45, 45, 80)   96080       input_1[0][0]                    
__________________________________________________________________________________________________
conv2d_12 (Conv2D)              (None, 45, 45, 80)   96080       input_1[0][0]                    
__________________________________________________________________________________________________
batch_normalization (BatchNorma (None, 45, 45, 80)   320         conv2d[0][0]                     
__________________________________________________________________________________________________
batch_normalization_4 (BatchNor (None, 45, 45, 80)   320         conv2d_4[0][0]                   
__________________________________________________________________________________________________
batch_normalization_8 (BatchNor (None, 45, 45, 80)   320         conv2d_8[0][0]                   
__________________________________________________________________________________________________
batch_normalization_12 (BatchNo (None, 45, 45, 80)   320         conv2d_12[0][0]                  
__________________________________________________________________________________________________
activation (Activation)         (None, 45, 45, 80)   0           batch_normalization[0][0]        
__________________________________________________________________________________________________
activation_4 (Activation)       (None, 45, 45, 80)   0           batch_normalization_4[0][0]      
__________________________________________________________________________________________________
activation_8 (Activation)       (None, 45, 45, 80)   0           batch_normalization_8[0][0]      
__________________________________________________________________________________________________
activation_12 (Activation)      (None, 45, 45, 80)   0           batch_normalization_12[0][0]     
__________________________________________________________________________________________________
dropout (Dropout)               (None, 45, 45, 80)   0           activation[0][0]                 
__________________________________________________________________________________________________
dropout_4 (Dropout)             (None, 45, 45, 80)   0           activation_4[0][0]               
__________________________________________________________________________________________________
dropout_8 (Dropout)             (None, 45, 45, 80)   0           activation_8[0][0]               
__________________________________________________________________________________________________
dropout_12 (Dropout)            (None, 45, 45, 80)   0           activation_12[0][0]              
__________________________________________________________________________________________________
conv2d_1 (Conv2D)               (None, 14, 14, 80)   160080      dropout[0][0]                    
__________________________________________________________________________________________________
conv2d_5 (Conv2D)               (None, 14, 14, 80)   160080      dropout_4[0][0]                  
__________________________________________________________________________________________________
conv2d_9 (Conv2D)               (None, 14, 14, 80)   160080      dropout_8[0][0]                  
__________________________________________________________________________________________________
conv2d_13 (Conv2D)              (None, 14, 14, 80)   160080      dropout_12[0][0]                 
__________________________________________________________________________________________________
batch_normalization_1 (BatchNor (None, 14, 14, 80)   320         conv2d_1[0][0]                   
__________________________________________________________________________________________________
batch_normalization_5 (BatchNor (None, 14, 14, 80)   320         conv2d_5[0][0]                   
__________________________________________________________________________________________________
batch_normalization_9 (BatchNor (None, 14, 14, 80)   320         conv2d_9[0][0]                   
__________________________________________________________________________________________________
batch_normalization_13 (BatchNo (None, 14, 14, 80)   320         conv2d_13[0][0]                  
__________________________________________________________________________________________________
activation_1 (Activation)       (None, 14, 14, 80)   0           batch_normalization_1[0][0]      
__________________________________________________________________________________________________
activation_5 (Activation)       (None, 14, 14, 80)   0           batch_normalization_5[0][0]      
__________________________________________________________________________________________________
activation_9 (Activation)       (None, 14, 14, 80)   0           batch_normalization_9[0][0]      
__________________________________________________________________________________________________
activation_13 (Activation)      (None, 14, 14, 80)   0           batch_normalization_13[0][0]     
__________________________________________________________________________________________________
dropout_1 (Dropout)             (None, 14, 14, 80)   0           activation_1[0][0]               
__________________________________________________________________________________________________
dropout_5 (Dropout)             (None, 14, 14, 80)   0           activation_5[0][0]               
__________________________________________________________________________________________________
dropout_9 (Dropout)             (None, 14, 14, 80)   0           activation_9[0][0]               
__________________________________________________________________________________________________
dropout_13 (Dropout)            (None, 14, 14, 80)   0           activation_13[0][0]              
__________________________________________________________________________________________________
conv2d_2 (Conv2D)               (None, 6, 6, 80)     57680       dropout_1[0][0]                  
__________________________________________________________________________________________________
conv2d_6 (Conv2D)               (None, 6, 6, 80)     57680       dropout_5[0][0]                  
__________________________________________________________________________________________________
conv2d_10 (Conv2D)              (None, 6, 6, 80)     57680       dropout_9[0][0]                  
__________________________________________________________________________________________________
conv2d_14 (Conv2D)              (None, 6, 6, 80)     57680       dropout_13[0][0]                 
__________________________________________________________________________________________________
batch_normalization_2 (BatchNor (None, 6, 6, 80)     320         conv2d_2[0][0]                   
__________________________________________________________________________________________________
batch_normalization_6 (BatchNor (None, 6, 6, 80)     320         conv2d_6[0][0]                   
__________________________________________________________________________________________________
batch_normalization_10 (BatchNo (None, 6, 6, 80)     320         conv2d_10[0][0]                  
__________________________________________________________________________________________________
batch_normalization_14 (BatchNo (None, 6, 6, 80)     320         conv2d_14[0][0]                  
__________________________________________________________________________________________________
activation_2 (Activation)       (None, 6, 6, 80)     0           batch_normalization_2[0][0]      
__________________________________________________________________________________________________
activation_6 (Activation)       (None, 6, 6, 80)     0           batch_normalization_6[0][0]      
__________________________________________________________________________________________________
activation_10 (Activation)      (None, 6, 6, 80)     0           batch_normalization_10[0][0]     
__________________________________________________________________________________________________
activation_14 (Activation)      (None, 6, 6, 80)     0           batch_normalization_14[0][0]     
__________________________________________________________________________________________________
dropout_2 (Dropout)             (None, 6, 6, 80)     0           activation_2[0][0]               
__________________________________________________________________________________________________
dropout_6 (Dropout)             (None, 6, 6, 80)     0           activation_6[0][0]               
__________________________________________________________________________________________________
dropout_10 (Dropout)            (None, 6, 6, 80)     0           activation_10[0][0]              
__________________________________________________________________________________________________
dropout_14 (Dropout)            (None, 6, 6, 80)     0           activation_14[0][0]              
__________________________________________________________________________________________________
conv2d_3 (Conv2D)               (None, 5, 5, 80)     25680       dropout_2[0][0]                  
__________________________________________________________________________________________________
conv2d_7 (Conv2D)               (None, 5, 5, 80)     25680       dropout_6[0][0]                  
__________________________________________________________________________________________________
conv2d_11 (Conv2D)              (None, 5, 5, 80)     25680       dropout_10[0][0]                 
__________________________________________________________________________________________________
conv2d_15 (Conv2D)              (None, 5, 5, 80)     25680       dropout_14[0][0]                 
__________________________________________________________________________________________________
batch_normalization_3 (BatchNor (None, 5, 5, 80)     320         conv2d_3[0][0]                   
__________________________________________________________________________________________________
batch_normalization_7 (BatchNor (None, 5, 5, 80)     320         conv2d_7[0][0]                   
__________________________________________________________________________________________________
batch_normalization_11 (BatchNo (None, 5, 5, 80)     320         conv2d_11[0][0]                  
__________________________________________________________________________________________________
batch_normalization_15 (BatchNo (None, 5, 5, 80)     320         conv2d_15[0][0]                  
__________________________________________________________________________________________________
activation_3 (Activation)       (None, 5, 5, 80)     0           batch_normalization_3[0][0]      
__________________________________________________________________________________________________
activation_7 (Activation)       (None, 5, 5, 80)     0           batch_normalization_7[0][0]      
__________________________________________________________________________________________________
activation_11 (Activation)      (None, 5, 5, 80)     0           batch_normalization_11[0][0]     
__________________________________________________________________________________________________
activation_15 (Activation)      (None, 5, 5, 80)     0           batch_normalization_15[0][0]     
__________________________________________________________________________________________________
dropout_3 (Dropout)             (None, 5, 5, 80)     0           activation_3[0][0]               
__________________________________________________________________________________________________
dropout_7 (Dropout)             (None, 5, 5, 80)     0           activation_7[0][0]               
__________________________________________________________________________________________________
dropout_11 (Dropout)            (None, 5, 5, 80)     0           activation_11[0][0]              
__________________________________________________________________________________________________
dropout_15 (Dropout)            (None, 5, 5, 80)     0           activation_15[0][0]              
__________________________________________________________________________________________________
flatten_1 (Flatten)             (None, 2000)         0           dropout_3[0][0]                  
__________________________________________________________________________________________________
flatten_2 (Flatten)             (None, 2000)         0           dropout_7[0][0]                  
__________________________________________________________________________________________________
flatten_3 (Flatten)             (None, 2000)         0           dropout_11[0][0]                 
__________________________________________________________________________________________________
flatten_4 (Flatten)             (None, 2000)         0           dropout_15[0][0]                 
__________________________________________________________________________________________________
concatenate (Concatenate)       (None, 8000)         0           flatten_1[0][0]                  
                                                                 flatten_2[0][0]                  
                                                                 flatten_3[0][0]                  
                                                                 flatten_4[0][0]                  
__________________________________________________________________________________________________
dense (Dense)                   (None, 256)          2048256     concatenate[0][0]                
__________________________________________________________________________________________________
dropout_20 (Dropout)            (None, 256)          0           dense[0][0]                      
__________________________________________________________________________________________________
dense_2 (Dense)                 (None, 64)           16448       dropout_20[0][0]                 
__________________________________________________________________________________________________
dropout_22 (Dropout)            (None, 64)           0           dense_2[0][0]                    
__________________________________________________________________________________________________
dense_3 (Dense)                 (None, 10)           650         dropout_22[0][0]                 
__________________________________________________________________________________________________
dropout_23 (Dropout)            (None, 10)           0           dense_3[0][0]                    
__________________________________________________________________________________________________
dense_4 (Dense)                 (None, 1)            11          dropout_23[0][0]                 
==================================================================================================
Total params: 3,428,565
Trainable params: 3,426,005
Non-trainable params: 2,560
__________________________________________________________________________________________________
None
Adding Images: Error ---- 
No such file: '/mnt/beegfs/home/agolchub/repo/Aesthetic_Photo_Ranking/databaserelease2/JPEG/﻿Filename'
…
