…
/mnt/beegfs/home/agolchub/miniconda3/envs/tf2_8_gpu/lib/python3.9/site-packages/keras/optimizer_v2/adam.py:105: UserWarning: The `lr` argument is deprecated, use `learning_rate` instead.
  super(Adam, self).__init__(name, **kwargs)
Input file is " 
Output file is " ./segmented_models/lighting
Image path is " 
--------------------


Model: "model"
_________________________________________________________________
 Layer (type)                Output Shape              Param #   
=================================================================
 input_1 (InputLayer)        [(None, 244, 244, 3)]     0         
                                                                 
 conv2d (Conv2D)             (None, 45, 45, 80)        96080     
                                                                 
 batch_normalization (BatchN  (None, 45, 45, 80)       320       
 ormalization)                                                   
                                                                 
 activation (Activation)     (None, 45, 45, 80)        0         
                                                                 
 dropout (Dropout)           (None, 45, 45, 80)        0         
                                                                 
 conv2d_1 (Conv2D)           (None, 14, 14, 80)        160080    
                                                                 
 batch_normalization_1 (Batc  (None, 14, 14, 80)       320       
 hNormalization)                                                 
                                                                 
 activation_1 (Activation)   (None, 14, 14, 80)        0         
                                                                 
 dropout_1 (Dropout)         (None, 14, 14, 80)        0         
                                                                 
 conv2d_2 (Conv2D)           (None, 6, 6, 80)          57680     
                                                                 
 batch_normalization_2 (Batc  (None, 6, 6, 80)         320       
 hNormalization)                                                 
                                                                 
 activation_2 (Activation)   (None, 6, 6, 80)          0         
                                                                 
 dropout_2 (Dropout)         (None, 6, 6, 80)          0         
                                                                 
 conv2d_3 (Conv2D)           (None, 5, 5, 80)          25680     
                                                                 
 batch_normalization_3 (Batc  (None, 5, 5, 80)         320       
 hNormalization)                                                 
                                                                 
 activation_3 (Activation)   (None, 5, 5, 80)          0         
                                                                 
 dropout_3 (Dropout)         (None, 5, 5, 80)          0         
                                                                 
 flatten (Flatten)           (None, 2000)              0         
                                                                 
 dense (Dense)               (None, 64)                128064    
                                                                 
 dropout_4 (Dropout)         (None, 64)                0         
                                                                 
 dense_1 (Dense)             (None, 64)                4160      
                                                                 
 dropout_5 (Dropout)         (None, 64)                0         
                                                                 
 dense_2 (Dense)             (None, 1)                 65        
                                                                 
=================================================================
Total params: 473,089
Trainable params: 472,449
Non-trainable params: 640
_________________________________________________________________
None
Adding Images: Error ---- 
No such file: '/mnt/beegfs/home/agolchub/repo/Aesthetic_Photo_Ranking/databaserelease2/JPEG/﻿Filename'
…
