…
/mnt/beegfs/home/agolchub/miniconda3/envs/tf2-gpu/lib/python3.9/site-packages/keras/optimizer_v2/optimizer_v2.py:355: UserWarning: The `lr` argument is deprecated, use `learning_rate` instead.
  warnings.warn(
Input file is " 
Output file is " agnet.model.5
Image path is " 
--------------------


Model: "model"
_________________________________________________________________
Layer (type)                 Output Shape              Param #   
=================================================================
input_1 (InputLayer)         [(None, 1024, 680, 3)]    0         
_________________________________________________________________
conv2d (Conv2D)              (None, 298, 297, 32)      1115168   
_________________________________________________________________
batch_normalization (BatchNo (None, 298, 297, 32)      128       
_________________________________________________________________
dropout (Dropout)            (None, 298, 297, 32)      0         
_________________________________________________________________
conv2d_1 (Conv2D)            (None, 117, 116, 64)      8921152   
_________________________________________________________________
batch_normalization_1 (Batch (None, 117, 116, 64)      256       
_________________________________________________________________
dropout_1 (Dropout)          (None, 117, 116, 64)      0         
_________________________________________________________________
conv2d_2 (Conv2D)            (None, 51, 51, 128)       2097280   
_________________________________________________________________
batch_normalization_2 (Batch (None, 51, 51, 128)       512       
_________________________________________________________________
dropout_2 (Dropout)          (None, 51, 51, 128)       0         
_________________________________________________________________
conv2d_3 (Conv2D)            (None, 23, 23, 256)       1605888   
_________________________________________________________________
batch_normalization_3 (Batch (None, 23, 23, 256)       1024      
_________________________________________________________________
dropout_3 (Dropout)          (None, 23, 23, 256)       0         
_________________________________________________________________
conv2d_4 (Conv2D)            (None, 21, 21, 512)       1180160   
_________________________________________________________________
batch_normalization_4 (Batch (None, 21, 21, 512)       2048      
_________________________________________________________________
dropout_4 (Dropout)          (None, 21, 21, 512)       0         
_________________________________________________________________
conv2d_5 (Conv2D)            (None, 20, 20, 256)       524544    
_________________________________________________________________
batch_normalization_5 (Batch (None, 20, 20, 256)       1024      
_________________________________________________________________
dropout_5 (Dropout)          (None, 20, 20, 256)       0         
_________________________________________________________________
conv2d_6 (Conv2D)            (None, 19, 19, 128)       131200    
_________________________________________________________________
batch_normalization_6 (Batch (None, 19, 19, 128)       512       
_________________________________________________________________
dropout_6 (Dropout)          (None, 19, 19, 128)       0         
_________________________________________________________________
conv2d_7 (Conv2D)            (None, 18, 18, 64)        32832     
_________________________________________________________________
batch_normalization_7 (Batch (None, 18, 18, 64)        256       
_________________________________________________________________
dropout_7 (Dropout)          (None, 18, 18, 64)        0         
_________________________________________________________________
conv2d_8 (Conv2D)            (None, 17, 17, 64)        16448     
_________________________________________________________________
batch_normalization_8 (Batch (None, 17, 17, 64)        256       
_________________________________________________________________
dropout_8 (Dropout)          (None, 17, 17, 64)        0         
_________________________________________________________________
flatten_8 (Flatten)          (None, 18496)             0         
_________________________________________________________________
dense_9 (Dense)              (None, 256)               4735232   
_________________________________________________________________
dropout_9 (Dropout)          (None, 256)               0         
_________________________________________________________________
dense_10 (Dense)             (None, 128)               32896     
_________________________________________________________________
dropout_10 (Dropout)         (None, 128)               0         
_________________________________________________________________
dense_11 (Dense)             (None, 10)                1290      
=================================================================
Total params: 20,400,106
Trainable params: 20,397,098
Non-trainable params: 3,008
_________________________________________________________________
None
Adding Images: Reading ./databaserelease2/NatureDataset2/train/1-forest118.jpg
[1, 0, 0, 0, 0, 0, 0, 0, 0, 0]
Reading ./databaserelease2/NatureDataset2/train/1-forest121.jpg
[1, 0, 0, 0, 0, 0, 0, 0, 0, 0]
…
